…
        "mlp.compile(optimizer=tf.keras.optimizers.Adam(learning_rate=base_learning_rate),\n",
        "            loss=tf.keras.losses.categorical_crossentropy,\n",
        "            metrics=['accuracy'])\n",
        "mlp.summary()"
      ],
      "execution_count": null,
      "outputs": [
        {
          "output_type": "stream",
          "text": [
            "Model: \"sequential\"\n",
            "_________________________________________________________________\n",
            "Layer (type)                 Output Shape              Param #   \n",
            "=================================================================\n",
            "dense-1 (Dense)              (None, 2048)              83968     \n",
            "_________________________________________________________________\n",
            "activation (Activation)      (None, 2048)              0         \n",
            "_________________________________________________________________\n",
            "dense (Dense)                (None, 1024)              2098176   \n",
            "_________________________________________________________________\n",
            "activation_1 (Activation)    (None, 1024)              0         \n",
            "_________________________________________________________________\n",
            "dense_1 (Dense)              (None, 512)               524800    \n",
            "_________________________________________________________________\n",
            "activation_2 (Activation)    (None, 512)               0         \n",
            "_________________________________________________________________\n",
            "dense_2 (Dense)              (None, 512)               262656    \n",
            "_________________________________________________________________\n",
            "activation_3 (Activation)    (None, 512)               0         \n",
            "_________________________________________________________________\n",
            "dense_3 (Dense)              (None, 256)               131328    \n",
            "_________________________________________________________________\n",
            "activation_4 (Activation)    (None, 256)               0         \n",
            "_________________________________________________________________\n",
            "dense_4 (Dense)              (None, 138)               35466     \n",
            "=================================================================\n",
            "Total params: 3,136,394\n",
            "Trainable params: 3,136,394\n",
            "Non-trainable params: 0\n",
            "_________________________________________________________________\n"
          ],
          "name": "stdout"
        }
      ]
    },
    {
      "cell_type": "code",
      "metadata": {
…
